…
------------------------------------------------------
root_states shape: torch.Size([4096, 13])
dof_state shape: torch.Size([77824, 2])
force_sensor_tensor shape: torch.Size([4096, 4, 6])
contact_forces shape: torch.Size([4096, 26, 3])
rigid_body_state shape: torch.Size([4096, 26, 13])
mm_whole shape: torch.Size([4096, 19, 19])
jacobian_whole shape: torch.Size([4096, 26, 6, 25])
box_root_state shape: torch.Size([4096, 13])
box_contact_force shape: torch.Size([4096, 3])
box_rigid_body_state shape: torch.Size([4096, 13])
------------------------------------------------------
Actor MLP: Actor(
  (priv_encoder): Sequential(
    (0): Linear(in_features=24, out_features=64, bias=True)
    (1): ELU(alpha=1.0)
    (2): Linear(in_features=64, out_features=20, bias=True)
    (3): ELU(alpha=1.0)
  )
  (history_encoder): StateHistoryEncoder(
    (activation_fn): ELU(alpha=1.0)
    (encoder): Sequential(
      (0): Linear(in_features=74, out_features=30, bias=True)
      (1): ELU(alpha=1.0)
    )
    (conv_layers): Sequential(
      (0): Conv1d(30, 20, kernel_size=(4,), stride=(2,))
      (1): ELU(alpha=1.0)
      (2): Conv1d(20, 10, kernel_size=(2,), stride=(1,))
      (3): ELU(alpha=1.0)
      (4): Flatten(start_dim=1, end_dim=-1)
    )
    (linear_output): Sequential(
      (0): Linear(in_features=30, out_features=20, bias=True)
      (1): ELU(alpha=1.0)
    )
  )
  (actor_backbone): Sequential(
    (0): Linear(in_features=94, out_features=128, bias=True)
    (1): ELU(alpha=1.0)
  )
  (actor_leg_control_head): Sequential(
    (0): Linear(in_features=128, out_features=128, bias=True)
    (1): ELU(alpha=1.0)
    (2): Linear(in_features=128, out_features=128, bias=True)
    (3): ELU(alpha=1.0)
    (4): Linear(in_features=128, out_features=12, bias=True)
    (5): Tanh()
  )
  (actor_arm_control_head): Sequential(
    (0): Linear(in_features=128, out_features=128, bias=True)
    (1): ELU(alpha=1.0)
    (2): Linear(in_features=128, out_features=128, bias=True)
    (3): ELU(alpha=1.0)
    (4): Linear(in_features=128, out_features=6, bias=True)
    (5): Tanh()
  )
)
Critic MLP: Critic(
  (critic_backbone): Sequential(
    (0): Linear(in_features=98, out_features=128, bias=True)
    (1): ELU(alpha=1.0)
  )
  (critic_leg_control_head): Sequential(
    (0): Linear(in_features=128, out_features=128, bias=True)
    (1): ELU(alpha=1.0)
    (2): Linear(in_features=128, out_features=128, bias=True)
    (3): ELU(alpha=1.0)
    (4): Linear(in_features=128, out_features=1, bias=True)
  )
  (critic_arm_control_head): Sequential(
    (0): Linear(in_features=128, out_features=128, bias=True)
    (1): ELU(alpha=1.0)
    (2): Linear(in_features=128, out_features=128, bias=True)
    (3): ELU(alpha=1.0)
    (4): Linear(in_features=128, out_features=1, bias=True)
  )
)
=================================================================
Layer (type:depth-idx)                   Param #
=================================================================
ActorCritic                              18
├─Actor: 1-1                             --
│    └─Sequential: 2-1                   --
│    │    └─Linear: 3-1                  1,600
…
